…
model.add(Conv2D(32, kernel_size = (3,3), input_shape=(28,28,1), activation='relu'))
model.add(Conv2D(64,(3,3), activation='relu'))
model.add(MaxPooling2D(pool_size=2))
model.add(Dropout(0.25))
model.add(Flatten())
model.add(Dense(128, activation='relu'))
model.add(Dropout(0.5))
model.add(Dense(10, activation='softmax'))
```

모델 summary를 보자.


```
model.summary()
```

    Model: "sequential"
    _________________________________________________________________
    Layer (type)                 Output Shape              Param #   
    =================================================================
    conv2d (Conv2D)              (None, 26, 26, 32)        320       
    _________________________________________________________________
    conv2d_1 (Conv2D)            (None, 24, 24, 64)        18496     
    _________________________________________________________________
    max_pooling2d (MaxPooling2D) (None, 12, 12, 64)        0         
    _________________________________________________________________
    dropout (Dropout)            (None, 12, 12, 64)        0         
    _________________________________________________________________
    flatten (Flatten)            (None, 9216)              0         
    _________________________________________________________________
    dense (Dense)                (None, 128)               1179776   
    _________________________________________________________________
    dropout_1 (Dropout)          (None, 128)               0         
    _________________________________________________________________
    dense_1 (Dense)              (None, 10)                1290      
    =================================================================
    Total params: 1,199,882
    Trainable params: 1,199,882
    Non-trainable params: 0
    _________________________________________________________________


#### 4-2. 모델 컴파일

모델을 컴파일 해보자. 오차 함수로cetegorical_crossentropy, 최적화 함수로 adam을 사용한다.


```
model.compile(loss = 'categorical_crossentropy',
              optimizer='adam',
…
